models/test_model.pt (torch_old, 3483 bytes, 6 tensors)

lin1.weight f4 [16, 16]
00000000: 98d2 413d f0a5 643d 5a22 68be 284b 38be
00000010: 80e8 30bb 9eb4 2d3e 1040 e0bd 4c83 b63d
00000020: 00e0 86bb f04c 6c3d 7c0b d93d e256 4b3e
00000030: 608a c2bc 6cf9 76be 4071 3fbd 884c 103e
00000040: 7895 4f3d 2ca6 113e 40c8 eebd 4079 9abd
00000050: e060 ae3d 9e2b 0f3e f84e f13d 4061 7a3e
00000060: 6072 d6bc d415 35be 188e 2bbd d042 7fbe
00000070: a0dc 91bd 4cfa 89bd 44ff 75be aa3e 2dbe
00000080: 00bc 4f3c 6c5a f1bd 6e13 41be 9e0e 6f3e
00000090: a4db a23d f003 7c3d 887a 55bd 2090 edbd
000000a0: 2638 47be c023 d43c 54a2 c63d c0df 07bc
000000b0: 9042 ba3d f874 e6bd 52be 3f3e c843 623d
000000c0: d46f 0bbe 785f 0a3e 4a10 7ebe ac0e 5c3e
000000d0: 9227 3cbe 72af 43be 107a c6bc 16f7 2bbe
000000e0: bc21 de3d 40aa a9bb 6071 ff3c 82ee 413e
000000f0: 6c42 18be 807c e6bd 4008 88bb c05b f2bb
00000100: 58ec 153e ca59 1fbe b230 2e3e 3aa5 1abe
00000110: d870 0b3d a62b 503e c04a 4d3d 68c9 383d
00000120: 6086 fc3c e087 b83d 385c 42be cef8 1b3e
00000130: 80a5 153e 3ac3 27be b0d8 bf3c ec4c a5bd
00000140: 0499 c2bd 3e06 283e 5008 41bd d4b5 20be
00000150: b4f7 1a3e e655 33be 8808 9cbd 10fa 69bd
00000160: 6ce2 d23d 1642 68be b6b3 4dbe 625d 4bbe
00000170: 40f0 613d 3c38 6e3e 7ea9 4b3e d0fb c33c
00000180: 2c60 8fbd 006b 0ebd c642 793e c08c 36bc
00000190: 7c59 513e 162c 413e c443 3d3e 18dd 2c3d
000001a0: 744d a73d 5016 6fbd daf1 273e b4d9 20be
000001b0: 42e5 2cbe 8865 4abd d494 c3bd 0ec4 5dbe
000001c0: 8cfd 9b3d 3e79 2fbe 4c55 f3bd f82c 683e
000001d0: c695 1ebe 4606 373e c0e0 40be 9e3f 35be
000001e0: dc8f 5cbe d4b0 0fbe 8032 92bb c608 443e
000001f0: a2f9 36be c872 0ebd c0e5 b1bc 56b7 033e
00000200: 884a 743d 846a 5c3e a4ac 663e 1443 7dbe
00000210: 68c0 5abe 4067 383c ca99 64be b8b2 40bd
00000220: 8402 b7bd ae2f 4bbe 7006 0b3d 1eb4 6dbe
00000230: 0c72 a23d 34f2 debd d0a4 21bd e060 853d
00000240: 6cd6 1a3e f26d 27be e653 7a3e 6472 06be
00000250: b0bb a63c e4e9 03be f472 68be 069c 1d3e
00000260: 124c 10be c049 ecbb 8e87 51be f465 763e
00000270: 80e9 d5bc bc2b ae3d b6b5 2c3e d81a 17be
00000280: a404 74be 7849 2e3d 527f 2abe 5685 6b3e
00000290: 1eed 5c3e 1403 ba3d 405f f23d bcec c7bd
000002a0: 668a 52be ac62 aa3d 1210 6f3e 3aec 6a3e
000002b0: a028 4cbc 4015 fa3d 605a ea3d 204b 31bd
000002c0: c80b 493d d83b 633e 587a 4e3d c0ed 313e
000002d0: f6e9 4cbe 3e86 3b3e d87f 223e 10aa b7bc
000002e0: 20ef 33bd 30a4 82bd 784e 8fbd 0664 013e
000002f0: 101f eebc 00b7 68bd a8c5 73be 30c7 e0bc
00000300: 447b d6bd e4db 05be 6400 1e3e d6f7 63be
00000310: 68a1 8fbd d29e 56be 30d0 723e f0b3 fbbd
00000320: 74b4 133e f4b0 e2bd 50ba e03c 0452 b3bd
00000330: 483e 3dbd f2a9 7b3e 4ede 7e3e dce0 a73d
00000340: f0eb e23c 4a2c 1dbe 1403 eabd 5c60 523e
00000350: 80a4 523e 72b0 153e 8abf 563e b018 b7bd
00000360: 50de f0bd 74ea 68be 9ccb fd3d 9808 af3d
00000370: 728f 3b3e e8a2 58be 729e 333e d044 07bd
00000380: a61e 32be 0254 303e 9091 4bbe b2df 60be
00000390: 2cee 54be fca8 f43d 20e5 223c f441 e23d
000003a0: 5819 283e d802 413d 323b 593e 2432 8ebd
000003b0: aced 21be 04fd a03d 3c6a 993d ec00 c7bd
000003c0: 1c73 153e 9e21 533e 7850 edbd f060 cb3d
000003d0: f808 19bd c8fb 253e 902d fb3d 8099 e7bb
000003e0: c8dc 6c3d 9e43 643e c2d8 1f3e 7cc2 933d
000003f0: c4f3 fbbd 502e 11be a0a4 9f3c 784a 3dbd
0.04731998 0.055822313 -0.22669354 -0.1799742 -0.002699405 0.16963431 -0.10949719 0.08911762
-0.0041160583 0.05769056 0.105978936 0.19857362 -0.023747623 -0.24118584 -0.046738863 0.14091694
0.050679654 0.14223546 -0.116592884 -0.07542658 0.08514571 0.13981482 0.1178264 0.2445116
-0.026177585 -0.17684108 -0.041883558 -0.2492783 -0.07122159 -0.067371935 -0.24023157 -0.16918436
0.0126791 -0.11784825 -0.18855068 0.2334542 0.079520494 0.061527193 -0.052118808 -0.11599755
-0.19455013 0.025895953 0.096989304 -0.008293092 0.09094727 -0.11252779 0.18724945 0.055240422
-0.13616878 0.13512981 -0.24810901 0.21489972 -0.1837447 -0.19109896 -0.024228126 -0.16793475
0.10846278 -0.005177766 0.031181991 0.1893864 -0.14869088 -0.11254215 -0.004151374 -0.0073961914
0.14640939 -0.15561596 0.17010763 -0.15102091 0.034043163 0.2032915 0.050120115 0.04511395
0.030825794 0.09010291 -0.18980491 0.1523163 0.14613914 -0.16383067 0.023418754 -0.08071312
-0.09501842 0.16408631 -0.047127068 -0.15694362 0.15133554 -0.17513236 -0.07618815 -0.057123244
0.10297093 -0.2268146 -0.20088086 -0.19859841 0.05516076 0.23263639 0.19888875 0.023923784
-0.07000765 -0.034770012 0.24341878 -0.011141956 0.20444292 0.18864474 0.18482882 0.04220304
0.0816907 -0.05837089 0.16400853 -0.15708047 -0.1688433 -0.049413234 -0.09549871 -0.2165682
0.076167196 -0.17136094 -0.118815035 0.22673404 -0.15486822 0.17873487 -0.18835735 -0.1770005
-0.21539253 -0.14032298 -0.0044615865 0.19143972 -0.17868665 -0.034777433 -0.021715999 0.12862906
0.05964139 0.21525007 0.22526795 -0.2473262 -0.2136246 0.0112550855 -0.22324291 -0.04704544
-0.08936027 -0.19842407 0.033941686 -0.2321324 0.07931909 -0.1088604 -0.039463818 0.06512618
0.15120858 -0.16350535 0.24446067 -0.13129574 0.020353168 -0.12882191 -0.22700101 0.1539155
-0.14091519 -0.00721094 -0.20461866 0.2406233 -0.026112318 0.085044354 0.16866192 -0.14756334
-0.23829895 0.042550534 -0.16650131 0.23000082 0.21574828 0.09082618 0.11834574 -0.097619504
-0.20560607 0.083196014 0.23345974 0.22941676 -0.012460858 0.12211084 0.11443019 -0.043284535
0.0490835 0.22190797 0.050409645 0.1737585 -0.20011124 0.18312928 0.15869081 -0.02241996
-0.04392922 -0.063789725 -0.069973886 0.12635812 -0.029067546 -0.056815147 -0.23805869 -0.02743873
-0.1047273 -0.13072163 0.15429837 -0.2226251 -0.07013208 -0.20959023 0.2371223 -0.1229018
0.14424306 -0.110689074 0.02743259 -0.087558776 -0.046201974 0.24576548 0.2488949 0.081971854
0.027700394 -0.15348926 -0.11426368 0.2054457 0.20570564 0.1461809 0.20971504 -0.08940256
-0.11761153 -0.22745687 0.12392351 0.08546561 0.18316439 -0.21155894 0.17540911 -0.03302461
-0.17394504 0.17219546 -0.19879746 -0.21960333 -0.2079398 0.11946294 0.009942323 0.11047736
0.16415918 0.047121853 0.21213987 -0.06943157 -0.15813321 0.07860759 0.07490966 -0.09716973
0.14594692 0.20618293 -0.11587614 0.09930599 -0.03736207 0.16209328 0.1226455 -0.007067859
0.05782774 0.22291419 0.1561003 0.07214829 -0.12302354 -0.14177823 0.019487679 -0.046213597

lin1.bias f4 [16]
00000000: 1032 f23d e863 07bd c097 1dbe 3036 89bd
00000010: 5077 f3bd b095 383e 58ec 41be bcb8 7e3e
00000020: a092 5abe 763a 05be 08b5 f73d d6ea 4d3e
00000030: e09a 8cbd e4ea 3ebe 38e3 793d 7cb6 693e
0.11825955 -0.033054262 -0.1538992 -0.066997886 -0.118879914 0.18025851 -0.18937814 0.24875158
-0.21344995 -0.13010582 0.12095076 0.20109114 -0.068654776 -0.18644291 0.06100771 0.22823519

lin2.weight f4 [16, 16]
00000000: 8c8e cbbd 7c01 953d e842 4bbd 042f efbd
00000010: 50af cebc 2e45 113e 7030 943c 404b 44bd
00000020: e0f9 7c3d 4ce6 5cbe 264d 5dbe d661 6b3e
00000030: b444 b6bd 88b9 253d 0008 01bc 72df 09be
00000040: a4c9 2f3e c814 68be c0db ec3b 7821 7cbe
00000050: 3000 45be 504c e3bc 2a19 76be c4af 853d
00000060: 3e85 46be 9cd9 72be b812 89bd 544b cfbd
00000070: 60de 56bd 5c4f e33d ec51 d8bd 5ed8 3e3e
00000080: 2082 d43c 688b 153d 443f 8bbd 90d8 1b3d
00000090: 54fd f9bd f26b 5b3e d0c9 a4bc a898 51be
000000a0: 3e6c 0b3e 3a9a 23be da90 463e c2e4 18be
000000b0: a0e8 443e b8b9 603e 2adb 2dbe 600a babd
000000c0: 00df b93a 26e0 19be 3284 7c3e 20dd 18be
000000d0: 98ef 403d d040 e23d 26f6 05be 0a3f 10be
000000e0: 4aa5 45be f8a3 3a3d e4d4 983d 2e11 0abe
000000f0: 5821 3f3d 9096 85bc 863f 68be 1490 7fbe
00000100: 609a 19bc 5ced f23d 6269 5a3e 906c 03be
00000110: b403 64be 2c6b 40be 2866 0d3d 20a4 b0bc
00000120: a88a db3d 3271 763e 1cda 90bd f030 72bd
00000130: 1c84 8abd a835 c8bd 6c8e 37be 001f 823b
00000140: 807f 623d 3a4e 0cbe fcea 333e 008f 8d3c
00000150: 505e 0ebe 08eb 87bd 1475 a3bd 184f dcbd
00000160: 2840 a8bd ae2e 65be b074 503d 1465 3bbe
00000170: 64b1 f93d 58c1 603e 4081 d3bb ee38 35be
00000180: 387d 5fbd 7866 053e 1403 19be 581f c83d
00000190: 40a2 53bd 5695 17be 00b9 683e b0e4 323d
000001a0: 98ef 083d d8c5 063d 74b2 4c3e c0b5 b63b
000001b0: 2e06 373e a0ff 0bbc 3828 22bd 0431 683e
000001c0: e85f 38bd a4a6 c23d e006 15be 50ce c9bc
000001d0: 84db 063e 20d0 c43d d037 ecbd 1e8d 4abe
000001e0: 3872 3f3e b057 6dbd 3454 3cbe f67a 423e
000001f0: 24c6 0e3e e0c8 c63d 0859 153e f081 2bbe
00000200: f02a e53d 567f 0c3e 20c8 37be d465 52be
00000210: 6881 19bd 24cc 9f3d 4816 76be 60ff 44be
00000220: 40d0 bf3c d090 9f3c 881c f7bd 2473 e0bd
00000230: b8c3 fbbd bcd3 2abe 385e 0e3e 8a03 113e
00000240: d492 66be 9cbe 69be 609f 993d 7893 0d3d
00000250: f04e 8e3c bcc2 e83d 4675 51be 903e 983c
00000260: 5c35 1d3e ec07 ef3d f0cb 7d3e 62ec 77be
00000270: 7012 2c3d 649d 443e 8012 1bbc 6060 5dbc
00000280: 946b 1e3e cef0 5c3e e659 413e ac76 9c3d
00000290: ee12 2cbe 6c2d 403e 44e7 57be cebe 3abe
000002a0: e021 f03d 742f 7abe a8a4 e03d 22f2 4e3e
000002b0: c0f4 6f3e 924a 653e 60d0 b6bd f47a 903d
000002c0: 0033 cd3d 3ef7 0c3e 0069 b5bc 8075 ac3d
000002d0: f839 8a3d e0ea 4bbe c851 3b3d f0a6 a93c
000002e0: ba77 53be 980e eebd 00ae 7dbd 4025 c03c
000002f0: 68a8 3cbe 408d 773e 4610 23be 28bf 46bd
00000300: 88f0 2b3e 30a8 0fbd 307e 333e 02a0 23be
00000310: b8e6 35bd 04ea 77be 3443 35be 10c0 da3d
00000320: c6c5 0abe 8045 12bd 6035 4fbd d079 5cbd
00000330: 1e02 053e f8e6 923d 1a7c 2f3e b493 353e
00000340: 4c6a 66be 9a36 6ebe 5e76 4b3e 70fb 993d
00000350: 52eb 0bbe e029 473e c618 12be f009 ed3d
00000360: 7c72 e33d c086 ebbc c897 583d 1ae3 273e
00000370: 0000 a3ba 10ff 17be 6046 a3bc 5839 183d
00000380: 38bb 3bbd 4c36 fbbd aa0d 0b3e d031 57be
00000390: 8093 bebd 7077 32bd c2cd 243e d460 563e
000003a0: bacf 053e f024 e1bd 6c83 51be f00c 683e
000003b0: be81 4abe 261a 653e 484b 2ebe d6c9 403e
000003c0: d627 66be 4409 00be f23f 33be b080 263e
000003d0: a813 26bd 0455 d43d c889 dc3d 00d4 73bc
000003e0: c0da aabd f074 243d a0e5 bdbd b06d 933d
000003f0: b0f2 5abd ac37 b0bd 000d 903a 088f 4d3d
-0.09939298 0.07275674 -0.049624354 -0.116788894 -0.02523008 0.14186546 0.018089503 -0.047923326
0.061761737 -0.21572226 -0.21611461 0.2298654 -0.08899823 0.04046014 -0.0078754425 -0.13464144
0.17166764 -0.22664177 0.0072283447 -0.24622142 -0.19238353 -0.02774635 -0.24033037 0.06527665
-0.19386765 -0.23715824 -0.066930234 -0.101217896 -0.052458167 0.11099121 -0.105625 0.18637225
0.025940955 0.0365099 -0.06799176 0.038048327 -0.12206522 0.21427897 -0.020115763 -0.2046839
0.1361551 -0.15976802 0.19391194 -0.14931014 0.19229364 0.21945846 -0.16978136 -0.0908401
0.0014180839 -0.15026912 0.24659804 -0.14928102 0.047103494 0.11047518 -0.1308218 -0.14086547
-0.19301334 0.04556653 0.07462481 -0.13483116 0.04666266 -0.016307145 -0.22680482 -0.24957305
-0.009375185 0.11861679 0.21329263 -0.12834382 -0.22267038 -0.18790883 0.034521252 -0.021562636
0.10719806 0.24066618 -0.07072851 -0.0591287 -0.06763479 -0.09775859 -0.17925423 0.0039709806
0.055297375 -0.13701716 0.17570108 0.017280102 -0.13903165 -0.066366255 -0.07981315 -0.107572734
-0.08215362 -0.22381088 0.050892532 -0.18300277 0.12192038 0.21948755 -0.006454617 -0.17697498
-0.054562777 0.1302737 -0.1494258 0.09771603 -0.051668406 -0.14803061 0.22726822 0.043675125
0.03343162 0.032903522 0.1998995 0.0055758655 0.17873451 -0.0085448325 -0.039589137 0.22674948
-0.04501334 0.095044404 -0.14553404 -0.02463451 0.13169676 0.09610009 -0.11534083 -0.19780394
0.18695915 -0.057944953 -0.18391496 0.18992218 0.13942772 0.097062826 0.14584744 -0.16748786
0.1118983 0.1372045 -0.17947435 -0.20546657 -0.037476927 0.078026086 -0.24031937 -0.19238043
0.023414731 0.019478232 -0.12065989 -0.10959461 -0.1229319 -0.16682333 0.13903129 0.14161506
-0.22516948 -0.22826618 0.075011015 0.034564465 0.017371625 0.11365268 -0.20454893 0.01858452
0.15352386 0.11671433 0.24784827 -0.24211267 0.04200977 0.19200665 -0.00946486 -0.013511747
0.15470725 0.21576235 0.1888195 0.07639822 -0.16804096 0.18767327 -0.21084315 -0.18236849
0.11725211 -0.24432164 0.10968906 0.20209554 0.23433208 0.22391728 -0.08926463 0.070547014
0.10019493 0.1376619 -0.022144794 0.08420849 0.06749338 -0.19913816 0.04573229 0.020709485
-0.20651141 -0.11623877 -0.061933517 0.023455262 -0.18423617 0.24174976 -0.15924177 -0.048522145
0.16790974 -0.035072505 0.17528605 -0.15979007 -0.044409484 -0.24210364 -0.17701417 0.10681164
-0.13552007 -0.03571081 -0.05058801 -0.053827107 0.12989089 0.0717296 0.17137185 0.17732126
-0.22501487 -0.23263016 0.19869372 0.07518661 -0.13663986 0.19449568 -0.14267263 0.11574161
0.111058205 -0.028750777 0.052879125 0.16395226 -0.0012435913 -0.14843392 -0.019931018 0.037164062
-0.045832843 -0.12266216 0.13579431 -0.21015096 -0.09305477 -0.043570936 0.16094115 0.20935374
0.13067523 -0.109933734 -0.2046029 0.22661185 -0.19776055 0.22373256 -0.17020905 0.18826994
-0.22476134 -0.12503535 -0.17504862 0.16260028 -0.04054609 0.10367778 0.10768467 -0.014882088
-0.083425045 0.040150583 -0.09272313 0.071986556 -0.0534541 -0.086043686 0.0010990202 0.050185233

lin2.bias f4 [16]
00000000: 80e5 0cbd 9037 c7bd 80a7 fe3c b07d 77be
00000010: 0032 663e 1cda 8b3d 68a7 72bd f4f8 e93d
00000020: a689 74be c0b6 afbb a4ae 21be 40c4 76be
00000030: f2b3 383e 2464 963d 085f 71bd 2864 d83d
-0.034398556 -0.097273946 0.03108573 -0.2416904 0.22480011 0.068287104 -0.059241682 0.11424437
-0.23880634 -0.0053623617 -0.15789276 -0.24098301 0.18037394 0.07343319 -0.05892852 0.10565978

lin3.weight f4 [4, 16]
00000000: 306e 713e c6f6 1d3e ce22 1c3e a2c1 61be
00000010: 586e 30be 98d6 2ebe 1070 4bbe 2028 e7bc
00000020: a0ea 333e 160e 4e3e 1a5d 5abe 764c 333e
00000030: 18cc 403d d868 5f3e 2840 2cbd 108d c0bd
00000040: 0c39 c6bd 6832 623e a405 173e a892 703e
00000050: 6021 7cbc 247c f23d 5455 d4bd 3ae2 16be
00000060: 685c 223d 38c5 803d 9c18 033e c2c4 5c3e
00000070: 5ec8 093e b4f0 cf3d bc2b 58be 4882 7d3e
00000080: 482a 4e3d 6055 b1bc 8023 67bd e8e1 57bd
00000090: aceb 57be 32a7 1e3e 74eb b9bd e072 77bd
000000a0: 962c 683e 1cdb 1bbe d0f8 473e 8056 a0bb
000000b0: 603d 4b3c 508d 1bbe 404f 343e 7a3e 763e
000000c0: 66b8 65be 38b5 ccbd c8a3 edbd 0838 2c3d
000000d0: 84ac 623e 50c9 b6bd 6070 16bc a8f6 1fbd
000000e0: f476 dcbd 2c90 f1bd 8ca2 553e b658 2b3e
000000f0: 6cb8 283e 16db 2abe de7a 423e 34b4 af3d
0.2357719 0.15426168 0.15247652 -0.22046521 -0.17229593 -0.17074049 -0.19866967 -0.028217375
0.17569971 0.20122561 -0.21324578 0.17509636 0.04706964 0.21817338 -0.04205337 -0.094019055
-0.096788496 0.22089541 0.14748245 0.23493445 -0.015388817 0.11840084 -0.103678375 -0.14734736
0.039638907 0.062876165 0.12802356 0.21559432 0.1345534 0.10153332 -0.21110433 0.2475673
0.05033329 -0.021647155 -0.05643034 -0.052705675 -0.21085995 0.15493467 -0.09078112 -0.060412288
0.22673258 -0.15220302 0.19528508 -0.004893124 0.01240477 -0.15190625 0.17608356 0.2404727
-0.22433624 -0.09995502 -0.116035044 0.042045623 0.22136122 -0.08925116 -0.009182066 -0.03905359
-0.10764876 -0.11795077 0.20862788 0.1673306 0.16476601 -0.16685137 0.18992183 0.08579293

lin3.bias f4 [4]
00000000: c826 4bbe e816 b1bd 708f d23c b85d ef3d
-0.19839013 -0.08646947 0.025703162 0.11687797
